{"format": "torch", "nodes": [{"name": "module", "id": 140060761013376, "class_name": "CompleteTableDetectionSystem(\n  (feature_processor): Sequential(\n    (0): Conv2d(20, 64, kernel_size=(1, 1), stride=(1, 1))\n    (1): BatchNorm2d(64, eps=1e-05, momentum=0.1, affine=True, track_running_stats=True)\n    (2): ReLU()\n    (3): Conv2d(64, 64, kernel_size=(3, 3), stride=(1, 1), padding=(1, 1))\n    (4): BatchNorm2d(64, eps=1e-05, momentum=0.1, affine=True, track_running_stats=True)\n    (5): ReLU()\n  )\n  (rpn): RegionProposalNetwork(\n    (feature_extractor): Sequential(\n      (0): Conv2d(64, 64, kernel_size=(3, 3), stride=(1, 1), padding=(1, 1))\n      (1): ReLU()\n    )\n    (classification_head): Conv2d(64, 72, kernel_size=(1, 1), stride=(1, 1))\n    (regression_head): Conv2d(64, 144, kernel_size=(1, 1), stride=(1, 1))\n  )\n  (roi_align): ROIAlign()\n  (detection_head): TableDetectionHead(\n    (shared_network): Sequential(\n      (0): Flatten(start_dim=1, end_dim=-1)\n      (1): Linear(in_features=3136, out_features=1024, bias=True)\n      (2): ReLU()\n      (3): Dropout(p=0.5, inplace=False)\n      (4): Linear(in_features=1024, out_features=512, bias=True)\n      (5): ReLU()\n      (6): Dropout(p=0.5, inplace=False)\n    )\n    (classifier): Linear(in_features=512, out_features=2, bias=True)\n    (bbr_head): Linear(in_features=512, out_features=4, bias=True)\n    (pbr_head): Sequential(\n      (0): Linear(in_features=512, out_features=256, bias=True)\n      (1): ReLU()\n      (2): Linear(in_features=256, out_features=4, bias=True)\n    )\n  )\n)", "parameters": [["feature_processor.0.weight", [64, 20, 1, 1]], ["feature_processor.0.bias", [64]], ["feature_processor.1.weight", [64]], ["feature_processor.1.bias", [64]], ["feature_processor.3.weight", [64, 64, 3, 3]], ["feature_processor.3.bias", [64]], ["feature_processor.4.weight", [64]], ["feature_processor.4.bias", [64]], ["rpn.fe
…
